res/modelDir/conv2d_q8/int8.model.tflite (tflite, 40192 bytes, 1 tensors)

conv2d/Conv2D i1 [64, 3, 3, 64]
000000 46 f3 fd 40 a4 2c 1b b0 3f 89 0d 2a 18 39 06 c9
       70 -13 -3 64 -92 44 27 -80 63 -119 13 42 24 57 6 -55
000010 1f 07 04 c4 c1 31 f0 d8 eb 95 0d bd 14 39 a9 d1
       31 7 4 -60 -63 49 -16 -40 -21 -107 13 -67 20 57 -87 -47
000020 cd eb ff e5 ec b1 07 76 fd 0e 10 9f e9 26 a3 b9
       -51 -21 -1 -27 -20 -79 7 118 -3 14 16 -97 -23 38 -93 -71
000030 c4 62 07 17 1b a9 f8 07 3c cc f8 a1 b7 45 d1 f8
       -60 98 7 23 27 -87 -8 7 60 -52 -8 -95 -73 69 -47 -8
000040 08 f6 c3 57 e1 cd d9 2a ef c2 ec 0f 11 61 bc d1
       8 -10 -61 87 -31 -51 -39 42 -17 -62 -20 15 17 97 -68 -47
000050 cd 17 2c 88 08 9f f4 a1 e0 a1 33 ad 53 0c 81 42
       -51 23 44 -120 8 -97 -12 -95 -32 -95 51 -83 83 12 -127 66
000060 bf ee 28 f6 ad da 58 0c c2 1a 55 5f ea 1e c4 b7
       -65 -18 40 -10 -83 -38 88 12 -62 26 85 95 -22 30 -60 -73
000070 cf 02 fd b0 1b 47 c7 c2 0a 08 12 64 11 31 b6 03
       -49 2 -3 -80 27 71 -57 -62 10 8 18 100 17 49 -74 3
000080 08 f5 e1 e0 e4 18 eb db fc 5a ee ba cb f1 92 f9
       8 -11 -31 -32 -28 24 -21 -37 -4 90 -18 -70 -53 -15 -110 -7
000090 e6 e7 26 5f 14 be 0a 3a 87 45 ee bf ab f5 d5 23
       -26 -25 38 95 20 -66 10 58 -121 69 -18 -65 -85 -11 -43 35
0000a0 04 2f 42 e8 2f ae 40 04 b0 cb fb 0e f3 67 2a dd
       4 47 66 -24 47 -82 64 4 -80 -53 -5 14 -13 103 42 -35
0000b0 29 f7 52 69 c7 c8 0f 10 e6 8b c5 26 e5 9b 0c 1c
       41 -9 82 105 -57 -56 15 16 -26 -117 -59 38 -27 -101 12 28
0000c0 4e dd 32 cc 26 a1 19 49 e7 39 9f a4 e3 ba 11 3f
       78 -35 50 -52 38 -95 25 73 -25 57 -97 -92 -29 -70 17 63
0000d0 e7 a7 bd 1c c6 29 38 c0 ad 54 0c 56 3d c1 f6 56
       -25 -89 -67 28 -58 41 56 -64 -83 84 12 86 61 -63 -10 86
0000e0 0e f6 9e 1b b0 11 8d e5 3f 42 12 99 38 32 35 2f
       14 -10 -98 27 -80 17 -115 -27 63 66 18 -103 56 50 53 47
0000f0 ea de 0b d2 ea fc fe c3 11 a8 1d df e5 6b c5 f4
       -22 -34 11 -46 -22 -4 -2 -61 17 -88 29 -33 -27 107 -59 -12
